…
  "hidden_size": 256,
  "initializer_range": 0.02,
  "intermediate_size": 1024,
  "layer_norm_eps": 1e-12,
  "max_position_embeddings": 1024,
  "model_type": "big_bird",
  "num_attention_heads": 4,
  "num_hidden_layers": 4,
  "num_random_blocks": 2,
  "pad_token_id": 0,
  "rescale_embeddings": false,
  "sep_token_id": 66,
  "transformers_version": "4.50.3",
  "type_vocab_size": 2,
  "use_bias": true,
  "use_cache": true,
  "vocab_size": 10003
}

Total number of parameters: 6115074
BigBirdForSequenceClassification(
  (bert): BigBirdModel(
    (embeddings): BigBirdEmbeddings(
      (word_embeddings): Embedding(10003, 256, padding_idx=0)
      (position_embeddings): Embedding(1024, 256)
      (token_type_embeddings): Embedding(2, 256)
      (LayerNorm): LayerNorm((256,), eps=1e-12, elementwise_affine=True)
      (dropout): Dropout(p=0.1, inplace=False)
    )
    (encoder): BigBirdEncoder(
      (layer): ModuleList(
        (0-3): 4 x BigBirdLayer(
          (attention): LinearAttention(
            (query): Linear(in_features=256, out_features=256, bias=True)
            (key): Linear(in_features=256, out_features=256, bias=True)
            (value): Linear(in_features=256, out_features=256, bias=True)
            (output): BigBirdSelfOutput(
              (dense): Linear(in_features=256, out_features=256, bias=True)
              (LayerNorm): LayerNorm((256,), eps=1e-12, elementwise_affine=True)
              (dropout): Dropout(p=0.1, inplace=False)
            )
            (dropout): Dropout(p=0.1, inplace=False)
          )
          (intermediate): BigBirdIntermediate(
            (dense): Linear(in_features=256, out_features=1024, bias=True)
            (intermediate_act_fn): GELUActivation()
          )
          (output): BigBirdOutput(
            (dense): Linear(in_features=1024, out_features=256, bias=True)
            (LayerNorm): LayerNorm((256,), eps=1e-12, elementwise_affine=True)
            (dropout): Dropout(p=0.1, inplace=False)
          )
        )
      )
    )
    (pooler): Linear(in_features=256, out_features=256, bias=True)
    (activation): Tanh()
  )
  (classifier): BigBirdClassificationHead(
    (dense): Linear(in_features=256, out_features=256, bias=True)
    (dropout): Dropout(p=0.1, inplace=False)
    (out_proj): Linear(in_features=256, out_features=2, bias=True)
  )
)
cuda
  0%|          | 0/6945 [00:00<?, ?it/s]  0%|          | 0/6945 [00:04<?, ?it/s, loss: 0.69 accuracy: 0.50]  0%|          | 1/6945 [00:04<8:28:22,  4.39s/it, loss: 0.69 accuracy: 0.50]  0%|          | 1/6945 [00:08<8:28:22,  4.39s/it, loss: 0.69 accuracy: 0.50]  0%|          | 2/6945 [00:08<7:59:05,  4.14s/it, loss: 0.69 accuracy: 0.50] 
…
