…
    "LABEL_5": 5,
    "LABEL_6": 6,
    "LABEL_7": 7,
    "LABEL_8": 8,
    "LABEL_9": 9
  },
  "layer_norm_eps": 1e-12,
  "max_position_embeddings": 2016,
  "model_type": "big_bird",
  "num_attention_heads": 4,
  "num_hidden_layers": 4,
  "num_random_blocks": 2,
  "pad_token_id": 0,
  "rescale_embeddings": false,
  "sep_token_id": 66,
  "transformers_version": "4.50.3",
  "type_vocab_size": 2,
  "use_bias": true,
  "use_cache": true,
  "vocab_size": 20
}

Total number of parameters: 3815434
BigBirdForSequenceClassification(
  (bert): BigBirdModel(
    (embeddings): BigBirdEmbeddings(
      (word_embeddings): Embedding(20, 256, padding_idx=0)
      (position_embeddings): Embedding(2016, 256)
      (token_type_embeddings): Embedding(2, 256)
      (LayerNorm): LayerNorm((256,), eps=1e-12, elementwise_affine=True)
      (dropout): Dropout(p=0.1, inplace=False)
    )
    (encoder): BigBirdEncoder(
      (layer): ModuleList(
        (0-1): 2 x BigBirdLayer(
          (attention): LinearAttention(
            (query): Linear(in_features=256, out_features=256, bias=True)
            (key): Linear(in_features=256, out_features=256, bias=True)
            (value): Linear(in_features=256, out_features=256, bias=True)
            (output): BigBirdSelfOutput(
              (dense): Linear(in_features=256, out_features=256, bias=True)
              (LayerNorm): LayerNorm((256,), eps=1e-12, elementwise_affine=True)
              (dropout): Dropout(p=0.1, inplace=False)
            )
            (dropout): Dropout(p=0.1, inplace=False)
          )
          (intermediate): BigBirdIntermediate(
            (dense): Linear(in_features=256, out_features=1024, bias=True)
            (intermediate_act_fn): GELUActivation()
          )
          (output): BigBirdOutput(
            (dense): Linear(in_features=1024, out_features=256, bias=True)
            (LayerNorm): LayerNorm((256,), eps=1e-12, elementwise_affine=True)
            (dropout): Dropout(p=0.1, inplace=False)
          )
        )
        (2-3): 2 x BigBirdLayer(
          (attention): BigBirdAttention(
            (self): BigBirdBlockSparseAttention(
              (query): Linear(in_features=256, out_features=256, bias=True)
              (key): Linear(in_features=256, out_features=256, bias=True)
              (value): Linear(in_features=256, out_features=256, bias=True)
            )
            (output): BigBirdSelfOutput(
              (dense): Linear(in_features=256, out_features=256, bias=True)
              (LayerNorm): LayerNorm((256,), eps=1e-12, elementwise_affine=True)
              (dropout): Dropout(p=0.1, inplace=False)
            )
          )
          (intermediate): BigBirdIntermediate(
            (dense): Linear(in_features=256, out_features=1024, bias=True)
            (intermediate_act_fn): GELUActivation()
          )
          (output): BigBirdOutput(
            (dense): Linear(in_features=1024, out_features=256, bias=True)
            (LayerNorm): LayerNorm((256,), eps=1e-12, elementwise_affine=True)
            (dropout): Dropout(p=0.1, inplace=False)
          )
        )
      )
    )
    (pooler): Linear(in_features=256, out_features=256, bias=True)
    (activation): Tanh()
  )
  (classifier): BigBirdClassificationHead(
    (dense): Linear(in_features=256, out_features=256, bias=True)
    (dropout): Dropout(p=0.1, inplace=False)
    (out_proj): Linear(in_features=256, out_features=10, bias=True)
  )
)
cuda
  0%|          | 0/80000 [00:00<?, ?it/s]  0%|          | 0/80000 [00:00<?, ?it/s, loss: 2.30678 accuracy: 0.08333]  0%|          | 1/80000 [00:00<16:07:26,  1.38it/s, loss: 2.30678 accuracy: 0.08333]  0%|          | 1/80000 [00:01<16:07:26,  1.38it/s, loss: 2.30779 accuracy: 0.08542]  0%|          | 2/80000 [00:01<10:49:06,  2.05it/s, l
…
